 CUDA-version: 10010 (10010), cuDNN: 7.6.5, GPU count: 4  
 OpenCV version: 4.9.1
0,1,2,3
 0 : compute_capability = 610, cudnn_half = 0, GPU: GeForce GTX 1080 Ti 
net.optimized_memory = 0 
mini_batch = 1, batch = 1, time_steps = 1, train = 0 
   layer   filters  size/strd(dil)      input                output
   0 Create CUDA-stream - 0 
 Create cudnn-handle 0 
conv      8       3 x 3/ 2    320 x 320 x   3 ->  160 x 160 x   8 0.011 BF
   1 conv      8       1 x 1/ 1    160 x 160 x   8 ->  160 x 160 x   8 0.003 BF
   2 conv      8/   8  3 x 3/ 1    160 x 160 x   8 ->  160 x 160 x   8 0.004 BF
   3 conv      4       1 x 1/ 1    160 x 160 x   8 ->  160 x 160 x   4 0.002 BF
   4 conv      8       1 x 1/ 1    160 x 160 x   4 ->  160 x 160 x   8 0.002 BF
   5 conv      8/   8  3 x 3/ 1    160 x 160 x   8 ->  160 x 160 x   8 0.004 BF
   6 conv      4       1 x 1/ 1    160 x 160 x   8 ->  160 x 160 x   4 0.002 BF
   7 dropout    p = 0.150        102400  ->   102400
   8 Shortcut Layer: 3,  wt = 0, wn = 0, outputs: 160 x 160 x   4 0.000 BF
   9 conv     24       1 x 1/ 1    160 x 160 x   4 ->  160 x 160 x  24 0.005 BF
  10 conv     24/  24  3 x 3/ 2    160 x 160 x  24 ->   80 x  80 x  24 0.003 BF
  11 conv      8       1 x 1/ 1     80 x  80 x  24 ->   80 x  80 x   8 0.002 BF
  12 conv     32       1 x 1/ 1     80 x  80 x   8 ->   80 x  80 x  32 0.003 BF
  13 conv     32/  32  3 x 3/ 1     80 x  80 x  32 ->   80 x  80 x  32 0.004 BF
  14 conv      8       1 x 1/ 1     80 x  80 x  32 ->   80 x  80 x   8 0.003 BF
  15 dropout    p = 0.150        51200  ->   51200
  16 Shortcut Layer: 11,  wt = 0, wn = 0, outputs:  80 x  80 x   8 0.000 BF
  17 conv     32       1 x 1/ 1     80 x  80 x   8 ->   80 x  80 x  32 0.003 BF
  18 conv     32/  32  3 x 3/ 1     80 x  80 x  32 ->   80 x  80 x  32 0.004 BF
  19 conv      8       1 x 1/ 1     80 x  80 x  32 ->   80 x  80 x   8 0.003 BF
  20 dropout    p = 0.150        51200  ->   51200
  21 Shortcut Layer: 16,  wt = 0, wn = 0, outputs:  80 x  80 x   8 0.000 BF
  22 conv     32       1 x 1/ 1     80 x  80 x   8 ->   80 x  80 x  32 0.003 BF
  23 conv     32/  32  3 x 3/ 2     80 x  80 x  32 ->   40 x  40 x  32 0.001 BF
  24 conv      8       1 x 1/ 1     40 x  40 x  32 ->   40 x  40 x   8 0.001 BF
  25 conv     48       1 x 1/ 1     40 x  40 x   8 ->   40 x  40 x  48 0.001 BF
  26 conv     48/  48  3 x 3/ 1     40 x  40 x  48 ->   40 x  40 x  48 0.001 BF
  27 conv      8       1 x 1/ 1     40 x  40 x  48 ->   40 x  40 x   8 0.001 BF
  28 dropout    p = 0.150        12800  ->   12800
  29 Shortcut Layer: 24,  wt = 0, wn = 0, outputs:  40 x  40 x   8 0.000 BF
  30 conv     48       1 x 1/ 1     40 x  40 x   8 ->   40 x  40 x  48 0.001 BF
  31 conv     48/  48  3 x 3/ 1     40 x  40 x  48 ->   40 x  40 x  48 0.001 BF
  32 conv      8       1 x 1/ 1     40 x  40 x  48 ->   40 x  40 x   8 0.001 BF
  33 dropout    p = 0.150        12800  ->   12800
  34 Shortcut Layer: 29,  wt = 0, wn = 0, outputs:  40 x  40 x   8 0.000 BF
  35 conv     48       1 x 1/ 1     40 x  40 x   8 ->   40 x  40 x  48 0.001 BF
  36 conv     48/  48  3 x 3/ 1     40 x  40 x  48 ->   40 x  40 x  48 0.001 BF
  37 conv     16       1 x 1/ 1     40 x  40 x  48 ->   40 x  40 x  16 0.002 BF
  38 conv     96       1 x 1/ 1     40 x  40 x  16 ->   40 x  40 x  96 0.005 BF
  39 conv     96/  96  3 x 3/ 1     40 x  40 x  96 ->   40 x  40 x  96 0.003 BF
  40 conv     16       1 x 1/ 1     40 x  40 x  96 ->   40 x  40 x  16 0.005 BF
  41 dropout    p = 0.150        25600  ->   25600
  42 Shortcut Layer: 37,  wt = 0, wn = 0, outputs:  40 x  40 x  16 0.000 BF
  43 conv     96       1 x 1/ 1     40 x  40 x  16 ->   40 x  40 x  96 0.005 BF
  44 conv     96/  96  3 x 3/ 1     40 x  40 x  96 ->   40 x  40 x  96 0.003 BF
  45 conv     16       1 x 1/ 1     40 x  40 x  96 ->   40 x  40 x  16 0.005 BF
  46 dropout    p = 0.150        25600  ->   25600
  47 Shortcut Layer: 42,  wt = 0, wn = 0, outputs:  40 x  40 x  16 0.000 BF
  48 conv     96       1 x 1/ 1     40 x  40 x  16 ->   40 x  40 x  96 0.005 BF
  49 conv     96/  96  3 x 3/ 1     40 x  40 x  96 ->   40 x  40 x  96 0.003 BF
  50 conv     16       1 x 1/ 1     40 x  40 x  96 ->   40 x  40 x  16 0.005 BF
  51 dropout    p = 0.150        25600  ->   25600
  52 Shortcut Layer: 47,  wt = 0, wn = 0, outputs:  40 x  40 x  16 0.000 BF
  53 conv     96       1 x 1/ 1     40 x  40 x  16 ->   40 x  40 x  96 0.005 BF
  54 conv     96/  96  3 x 3/ 1     40 x  40 x  96 ->   40 x  40 x  96 0.003 BF
  55 conv     16       1 x 1/ 1     40 x  40 x  96 ->   40 x  40 x  16 0.005 BF
  56 dropout    p = 0.150        25600  ->   25600
  57 Shortcut Layer: 52,  wt = 0, wn = 0, outputs:  40 x  40 x  16 0.000 BF
  58 conv     96       1 x 1/ 1     40 x  40 x  16 ->   40 x  40 x  96 0.005 BF
  59 conv     96/  96  3 x 3/ 2     40 x  40 x  96 ->   20 x  20 x  96 0.001 BF
  60 conv     24       1 x 1/ 1     20 x  20 x  96 ->   20 x  20 x  24 0.002 BF
  61 conv    136       1 x 1/ 1     20 x  20 x  24 ->   20 x  20 x 136 0.003 BF
  62 conv    136/ 136  3 x 3/ 1     20 x  20 x 136 ->   20 x  20 x 136 0.001 BF
  63 conv     24       1 x 1/ 1     20 x  20 x 136 ->   20 x  20 x  24 0.003 BF
  64 dropout    p = 0.150        9600  ->   9600
  65 Shortcut Layer: 60,  wt = 0, wn = 0, outputs:  20 x  20 x  24 0.000 BF
  66 conv    136       1 x 1/ 1     20 x  20 x  24 ->   20 x  20 x 136 0.003 BF
  67 conv    136/ 136  3 x 3/ 1     20 x  20 x 136 ->   20 x  20 x 136 0.001 BF
  68 conv     24       1 x 1/ 1     20 x  20 x 136 ->   20 x  20 x  24 0.003 BF
  69 dropout    p = 0.150        9600  ->   9600
  70 Shortcut Layer: 65,  wt = 0, wn = 0, outputs:  20 x  20 x  24 0.000 BF
  71 conv    136       1 x 1/ 1     20 x  20 x  24 ->   20 x  20 x 136 0.003 BF
  72 conv    136/ 136  3 x 3/ 1     20 x  20 x 136 ->   20 x  20 x 136 0.001 BF
  73 conv     24       1 x 1/ 1     20 x  20 x 136 ->   20 x  20 x  24 0.003 BF
  74 dropout    p = 0.150        9600  ->   9600
  75 Shortcut Layer: 70,  wt = 0, wn = 0, outputs:  20 x  20 x  24 0.000 BF
  76 conv    136       1 x 1/ 1     20 x  20 x  24 ->   20 x  20 x 136 0.003 BF
  77 conv    136/ 136  3 x 3/ 1     20 x  20 x 136 ->   20 x  20 x 136 0.001 BF
  78 conv     24       1 x 1/ 1     20 x  20 x 136 ->   20 x  20 x  24 0.003 BF
  79 dropout    p = 0.150        9600  ->   9600
  80 Shortcut Layer: 75,  wt = 0, wn = 0, outputs:  20 x  20 x  24 0.000 BF
  81 conv    136       1 x 1/ 1     20 x  20 x  24 ->   20 x  20 x 136 0.003 BF
  82 conv    136/ 136  3 x 3/ 2     20 x  20 x 136 ->   10 x  10 x 136 0.000 BF
  83 conv     48       1 x 1/ 1     10 x  10 x 136 ->   10 x  10 x  48 0.001 BF
  84 conv    224       1 x 1/ 1     10 x  10 x  48 ->   10 x  10 x 224 0.002 BF
  85 conv    224/ 224  3 x 3/ 1     10 x  10 x 224 ->   10 x  10 x 224 0.000 BF
  86 conv     48       1 x 1/ 1     10 x  10 x 224 ->   10 x  10 x  48 0.002 BF
  87 dropout    p = 0.150        4800  ->   4800
  88 Shortcut Layer: 83,  wt = 0, wn = 0, outputs:  10 x  10 x  48 0.000 BF
  89 conv    224       1 x 1/ 1     10 x  10 x  48 ->   10 x  10 x 224 0.002 BF
  90 conv    224/ 224  3 x 3/ 1     10 x  10 x 224 ->   10 x  10 x 224 0.000 BF
  91 conv     48       1 x 1/ 1     10 x  10 x 224 ->   10 x  10 x  48 0.002 BF
  92 dropout    p = 0.150        4800  ->   4800
  93 Shortcut Layer: 88,  wt = 0, wn = 0, outputs:  10 x  10 x  48 0.000 BF
  94 conv    224       1 x 1/ 1     10 x  10 x  48 ->   10 x  10 x 224 0.002 BF
  95 conv    224/ 224  3 x 3/ 1     10 x  10 x 224 ->   10 x  10 x 224 0.000 BF
  96 conv     48       1 x 1/ 1     10 x  10 x 224 ->   10 x  10 x  48 0.002 BF
  97 dropout    p = 0.150        4800  ->   4800
  98 Shortcut Layer: 93,  wt = 0, wn = 0, outputs:  10 x  10 x  48 0.000 BF
  99 conv    224       1 x 1/ 1     10 x  10 x  48 ->   10 x  10 x 224 0.002 BF
 100 conv    224/ 224  3 x 3/ 1     10 x  10 x 224 ->   10 x  10 x 224 0.000 BF
 101 conv     48       1 x 1/ 1     10 x  10 x 224 ->   10 x  10 x  48 0.002 BF
 102 dropout    p = 0.150        4800  ->   4800
 103 Shortcut Layer: 98,  wt = 0, wn = 0, outputs:  10 x  10 x  48 0.000 BF
 104 conv    224       1 x 1/ 1     10 x  10 x  48 ->   10 x  10 x 224 0.002 BF
 105 conv    224/ 224  3 x 3/ 1     10 x  10 x 224 ->   10 x  10 x 224 0.000 BF
 106 conv     48       1 x 1/ 1     10 x  10 x 224 ->   10 x  10 x  48 0.002 BF
 107 dropout    p = 0.150        4800  ->   4800
 108 Shortcut Layer: 103,  wt = 0, wn = 0, outputs:  10 x  10 x  48 0.000 BF
 109 max                3x 3/ 1     10 x  10 x  48 ->   10 x  10 x  48 0.000 BF
 110 route  108 		                           ->   10 x  10 x  48 
 111 max                5x 5/ 1     10 x  10 x  48 ->   10 x  10 x  48 0.000 BF
 112 route  108 		                           ->   10 x  10 x  48 
 113 max                9x 9/ 1     10 x  10 x  48 ->   10 x  10 x  48 0.000 BF
 114 route  113 111 109 108 	                   ->   10 x  10 x 192 
 115 conv     96       1 x 1/ 1     10 x  10 x 192 ->   10 x  10 x  96 0.004 BF
 116 conv     96/  96  5 x 5/ 1     10 x  10 x  96 ->   10 x  10 x  96 0.000 BF
 117 conv     96       1 x 1/ 1     10 x  10 x  96 ->   10 x  10 x  96 0.002 BF
 118 conv     96/  96  5 x 5/ 1     10 x  10 x  96 ->   10 x  10 x  96 0.000 BF
 119 conv     96       1 x 1/ 1     10 x  10 x  96 ->   10 x  10 x  96 0.002 BF
 120 conv    255       1 x 1/ 1     10 x  10 x  96 ->   10 x  10 x 255 0.005 BF
 121 yolo
[yolo] params: iou loss: ciou (4), iou_norm: 0.07, obj_norm: 1.00, cls_norm: 1.00, delta_norm: 1.00, scale_x_y: 1.00
nms_kind: greedynms (1), beta = 0.600000 
 122 route  115 		                           ->   10 x  10 x  96 
 123 upsample                 2x    10 x  10 x  96 ->   20 x  20 x  96
 124 route  123 80 	                           ->   20 x  20 x 120 
 125 conv    120/ 120  5 x 5/ 1     20 x  20 x 120 ->   20 x  20 x 120 0.002 BF
 126 conv    120       1 x 1/ 1     20 x  20 x 120 ->   20 x  20 x 120 0.012 BF
 127 conv    120/ 120  5 x 5/ 1     20 x  20 x 120 ->   20 x  20 x 120 0.002 BF
 128 conv    120       1 x 1/ 1     20 x  20 x 120 ->   20 x  20 x 120 0.012 BF
 129 conv    255       1 x 1/ 1     20 x  20 x 120 ->   20 x  20 x 255 0.024 BF
 130 yolo
[yolo] params: iou loss: ciou (4), iou_norm: 0.07, obj_norm: 1.00, cls_norm: 1.00, delta_norm: 1.00, scale_x_y: 1.00
nms_kind: greedynms (1), beta = 0.600000 
Total BFLOPS 0.252 
avg_outputs = 62893 
 Allocate additional workspace_size = 1.23 MB 
Loading weights from yolo-fastest-1.1.weights...
 seen 64, trained: 14231 K-images (222 Kilo-batches_64) 
…
