mini_batch = 1, batch = 1, time_steps = 1, train = 0 
   layer   filters  size/strd(dil)      input                output
   0 Create CUDA-stream - 0 
 Create cudnn-handle 0 
conv     16       3 x 3/ 2    320 x 320 x   3 ->  160 x 160 x  16 0.022 BF
   1 conv     16       1 x 1/ 1    160 x 160 x  16 ->  160 x 160 x  16 0.013 BF
   2 conv     16/  16  3 x 3/ 1    160 x 160 x  16 ->  160 x 160 x  16 0.007 BF
   3 conv      8       1 x 1/ 1    160 x 160 x  16 ->  160 x 160 x   8 0.007 BF
   4 conv     16       1 x 1/ 1    160 x 160 x   8 ->  160 x 160 x  16 0.007 BF
   5 conv     16/  16  3 x 3/ 1    160 x 160 x  16 ->  160 x 160 x  16 0.007 BF
   6 conv      8       1 x 1/ 1    160 x 160 x  16 ->  160 x 160 x   8 0.007 BF
   7 dropout    p = 0.200        204800  ->   204800
   8 Shortcut Layer: 3,  wt = 0, wn = 0, outputs: 160 x 160 x   8 0.000 BF
   9 conv     48       1 x 1/ 1    160 x 160 x   8 ->  160 x 160 x  48 0.020 BF
  10 conv     48/  48  3 x 3/ 2    160 x 160 x  48 ->   80 x  80 x  48 0.006 BF
  11 conv     16       1 x 1/ 1     80 x  80 x  48 ->   80 x  80 x  16 0.010 BF
  12 conv     64       1 x 1/ 1     80 x  80 x  16 ->   80 x  80 x  64 0.013 BF
  13 conv     64/  64  3 x 3/ 1     80 x  80 x  64 ->   80 x  80 x  64 0.007 BF
  14 conv     16       1 x 1/ 1     80 x  80 x  64 ->   80 x  80 x  16 0.013 BF
  15 dropout    p = 0.200        102400  ->   102400
  16 Shortcut Layer: 11,  wt = 0, wn = 0, outputs:  80 x  80 x  16 0.000 BF
  17 conv     64       1 x 1/ 1     80 x  80 x  16 ->   80 x  80 x  64 0.013 BF
  18 conv     64/  64  3 x 3/ 1     80 x  80 x  64 ->   80 x  80 x  64 0.007 BF
  19 conv     16       1 x 1/ 1     80 x  80 x  64 ->   80 x  80 x  16 0.013 BF
  20 dropout    p = 0.200        102400  ->   102400
  21 Shortcut Layer: 16,  wt = 0, wn = 0, outputs:  80 x  80 x  16 0.000 BF
  22 conv     64       1 x 1/ 1     80 x  80 x  16 ->   80 x  80 x  64 0.013 BF
  23 conv     64/  64  3 x 3/ 2     80 x  80 x  64 ->   40 x  40 x  64 0.002 BF
  24 conv     16       1 x 1/ 1     40 x  40 x  64 ->   40 x  40 x  16 0.003 BF
  25 conv     96       1 x 1/ 1     40 x  40 x  16 ->   40 x  40 x  96 0.005 BF
  26 conv     96/  96  3 x 3/ 1     40 x  40 x  96 ->   40 x  40 x  96 0.003 BF
  27 conv     16       1 x 1/ 1     40 x  40 x  96 ->   40 x  40 x  16 0.005 BF
  28 dropout    p = 0.200        25600  ->   25600
  29 Shortcut Layer: 24,  wt = 0, wn = 0, outputs:  40 x  40 x  16 0.000 BF
  30 conv     96       1 x 1/ 1     40 x  40 x  16 ->   40 x  40 x  96 0.005 BF
  31 conv     96/  96  3 x 3/ 1     40 x  40 x  96 ->   40 x  40 x  96 0.003 BF
  32 conv     16       1 x 1/ 1     40 x  40 x  96 ->   40 x  40 x  16 0.005 BF
  33 dropout    p = 0.200        25600  ->   25600
  34 Shortcut Layer: 29,  wt = 0, wn = 0, outputs:  40 x  40 x  16 0.000 BF
  35 conv     96       1 x 1/ 1     40 x  40 x  16 ->   40 x  40 x  96 0.005 BF
  36 conv     96/  96  3 x 3/ 1     40 x  40 x  96 ->   40 x  40 x  96 0.003 BF
  37 conv     32       1 x 1/ 1     40 x  40 x  96 ->   40 x  40 x  32 0.010 BF
  38 conv    192       1 x 1/ 1     40 x  40 x  32 ->   40 x  40 x 192 0.020 BF
  39 conv    192/ 192  3 x 3/ 1     40 x  40 x 192 ->   40 x  40 x 192 0.006 BF
  40 conv     32       1 x 1/ 1     40 x  40 x 192 ->   40 x  40 x  32 0.020 BF
  41 dropout    p = 0.200        51200  ->   51200
  42 Shortcut Layer: 37,  wt = 0, wn = 0, outputs:  40 x  40 x  32 0.000 BF
  43 conv    192       1 x 1/ 1     40 x  40 x  32 ->   40 x  40 x 192 0.020 BF
  44 conv    192/ 192  3 x 3/ 1     40 x  40 x 192 ->   40 x  40 x 192 0.006 BF
  45 conv     32       1 x 1/ 1     40 x  40 x 192 ->   40 x  40 x  32 0.020 BF
  46 dropout    p = 0.200        51200  ->   51200
  47 Shortcut Layer: 42,  wt = 0, wn = 0, outputs:  40 x  40 x  32 0.000 BF
  48 conv    192       1 x 1/ 1     40 x  40 x  32 ->   40 x  40 x 192 0.020 BF
  49 conv    192/ 192  3 x 3/ 1     40 x  40 x 192 ->   40 x  40 x 192 0.006 BF
  50 conv     32       1 x 1/ 1     40 x  40 x 192 ->   40 x  40 x  32 0.020 BF
  51 dropout    p = 0.200        51200  ->   51200
  52 Shortcut Layer: 47,  wt = 0, wn = 0, outputs:  40 x  40 x  32 0.000 BF
  53 conv    192       1 x 1/ 1     40 x  40 x  32 ->   40 x  40 x 192 0.020 BF
  54 conv    192/ 192  3 x 3/ 1     40 x  40 x 192 ->   40 x  40 x 192 0.006 BF
  55 conv     32       1 x 1/ 1     40 x  40 x 192 ->   40 x  40 x  32 0.020 BF
  56 dropout    p = 0.200        51200  ->   51200
  57 Shortcut Layer: 52,  wt = 0, wn = 0, outputs:  40 x  40 x  32 0.000 BF
  58 conv    192       1 x 1/ 1     40 x  40 x  32 ->   40 x  40 x 192 0.020 BF
  59 conv    192/ 192  3 x 3/ 2     40 x  40 x 192 ->   20 x  20 x 192 0.001 BF
  60 conv     48       1 x 1/ 1     20 x  20 x 192 ->   20 x  20 x  48 0.007 BF
  61 conv    272       1 x 1/ 1     20 x  20 x  48 ->   20 x  20 x 272 0.010 BF
  62 conv    272/ 272  3 x 3/ 1     20 x  20 x 272 ->   20 x  20 x 272 0.002 BF
  63 conv     48       1 x 1/ 1     20 x  20 x 272 ->   20 x  20 x  48 0.010 BF
  64 dropout    p = 0.200        19200  ->   19200
  65 Shortcut Layer: 60,  wt = 0, wn = 0, outputs:  20 x  20 x  48 0.000 BF
  66 conv    272       1 x 1/ 1     20 x  20 x  48 ->   20 x  20 x 272 0.010 BF
  67 conv    272/ 272  3 x 3/ 1     20 x  20 x 272 ->   20 x  20 x 272 0.002 BF
  68 conv     48       1 x 1/ 1     20 x  20 x 272 ->   20 x  20 x  48 0.010 BF
  69 dropout    p = 0.200        19200  ->   19200
  70 Shortcut Layer: 65,  wt = 0, wn = 0, outputs:  20 x  20 x  48 0.000 BF
  71 conv    272       1 x 1/ 1     20 x  20 x  48 ->   20 x  20 x 272 0.010 BF
  72 conv    272/ 272  3 x 3/ 1     20 x  20 x 272 ->   20 x  20 x 272 0.002 BF
  73 conv     48       1 x 1/ 1     20 x  20 x 272 ->   20 x  20 x  48 0.010 BF
  74 dropout    p = 0.200        19200  ->   19200
  75 Shortcut Layer: 70,  wt = 0, wn = 0, outputs:  20 x  20 x  48 0.000 BF
  76 conv    272       1 x 1/ 1     20 x  20 x  48 ->   20 x  20 x 272 0.010 BF
  77 conv    272/ 272  3 x 3/ 1     20 x  20 x 272 ->   20 x  20 x 272 0.002 BF
  78 conv     48       1 x 1/ 1     20 x  20 x 272 ->   20 x  20 x  48 0.010 BF
  79 dropout    p = 0.200        19200  ->   19200
  80 Shortcut Layer: 75,  wt = 0, wn = 0, outputs:  20 x  20 x  48 0.000 BF
  81 conv    272       1 x 1/ 1     20 x  20 x  48 ->   20 x  20 x 272 0.010 BF
  82 conv    272/ 272  3 x 3/ 2     20 x  20 x 272 ->   10 x  10 x 272 0.000 BF
  83 conv     96       1 x 1/ 1     10 x  10 x 272 ->   10 x  10 x  96 0.005 BF
  84 conv    448       1 x 1/ 1     10 x  10 x  96 ->   10 x  10 x 448 0.009 BF
  85 conv    448/ 448  3 x 3/ 1     10 x  10 x 448 ->   10 x  10 x 448 0.001 BF
  86 conv     96       1 x 1/ 1     10 x  10 x 448 ->   10 x  10 x  96 0.009 BF
  87 dropout    p = 0.200        9600  ->   9600
  88 Shortcut Layer: 83,  wt = 0, wn = 0, outputs:  10 x  10 x  96 0.000 BF
  89 conv    448       1 x 1/ 1     10 x  10 x  96 ->   10 x  10 x 448 0.009 BF
  90 conv    448/ 448  3 x 3/ 1     10 x  10 x 448 ->   10 x  10 x 448 0.001 BF
  91 conv     96       1 x 1/ 1     10 x  10 x 448 ->   10 x  10 x  96 0.009 BF
  92 dropout    p = 0.200        9600  ->   9600
  93 Shortcut Layer: 88,  wt = 0, wn = 0, outputs:  10 x  10 x  96 0.000 BF
  94 conv    448       1 x 1/ 1     10 x  10 x  96 ->   10 x  10 x 448 0.009 BF
  95 conv    448/ 448  3 x 3/ 1     10 x  10 x 448 ->   10 x  10 x 448 0.001 BF
  96 conv     96       1 x 1/ 1     10 x  10 x 448 ->   10 x  10 x  96 0.009 BF
  97 dropout    p = 0.200        9600  ->   9600
  98 Shortcut Layer: 93,  wt = 0, wn = 0, outputs:  10 x  10 x  96 0.000 BF
  99 conv    448       1 x 1/ 1     10 x  10 x  96 ->   10 x  10 x 448 0.009 BF
 100 conv    448/ 448  3 x 3/ 1     10 x  10 x 448 ->   10 x  10 x 448 0.001 BF
 101 conv     96       1 x 1/ 1     10 x  10 x 448 ->   10 x  10 x  96 0.009 BF
 102 dropout    p = 0.200        9600  ->   9600
 103 Shortcut Layer: 98,  wt = 0, wn = 0, outputs:  10 x  10 x  96 0.000 BF
 104 conv    448       1 x 1/ 1     10 x  10 x  96 ->   10 x  10 x 448 0.009 BF
 105 conv    448/ 448  3 x 3/ 1     10 x  10 x 448 ->   10 x  10 x 448 0.001 BF
 106 conv     96       1 x 1/ 1     10 x  10 x 448 ->   10 x  10 x  96 0.009 BF
 107 dropout    p = 0.200        9600  ->   9600
 108 Shortcut Layer: 103,  wt = 0, wn = 0, outputs:  10 x  10 x  96 0.000 BF
 109 max                3x 3/ 1     10 x  10 x  96 ->   10 x  10 x  96 0.000 BF
 110 route  108 		                           ->   10 x  10 x  96 
 111 max                5x 5/ 1     10 x  10 x  96 ->   10 x  10 x  96 0.000 BF
 112 route  108 		                           ->   10 x  10 x  96 
 113 max                9x 9/ 1     10 x  10 x  96 ->   10 x  10 x  96 0.001 BF
 114 route  113 111 109 108 	                   ->   10 x  10 x 384 
 115 conv     96       1 x 1/ 1     10 x  10 x 384 ->   10 x  10 x  96 0.007 BF
 116 conv     96/  96  5 x 5/ 1     10 x  10 x  96 ->   10 x  10 x  96 0.000 BF
 117 conv     96       1 x 1/ 1     10 x  10 x  96 ->   10 x  10 x  96 0.002 BF
 118 conv     96/  96  5 x 5/ 1     10 x  10 x  96 ->   10 x  10 x  96 0.000 BF
 119 conv     96       1 x 1/ 1     10 x  10 x  96 ->   10 x  10 x  96 0.002 BF
 120 conv    255       1 x 1/ 1     10 x  10 x  96 ->   10 x  10 x 255 0.005 BF
 121 yolo
[yolo] params: iou loss: ciou (4), iou_norm: 0.07, obj_norm: 1.00, cls_norm: 1.00, delta_norm: 1.00, scale_x_y: 1.00
nms_kind: greedynms (1), beta = 0.600000 
 122 route  115 		                           ->   10 x  10 x  96 
 123 upsample                 2x    10 x  10 x  96 ->   20 x  20 x  96
 124 route  123 80 	                           ->   20 x  20 x 144 
 125 conv    144/ 144  5 x 5/ 1     20 x  20 x 144 ->   20 x  20 x 144 0.003 BF
 126 conv    144       1 x 1/ 1     20 x  20 x 144 ->   20 x  20 x 144 0.017 BF
 127 conv    144/ 144  5 x 5/ 1     20 x  20 x 144 ->   20 x  20 x 144 0.003 BF
 128 conv    144       1 x 1/ 1     20 x  20 x 144 ->   20 x  20 x 144 0.017 BF
 129 conv    255       1 x 1/ 1     20 x  20 x 144 ->   20 x  20 x 255 0.029 BF
 130 yolo
[yolo] params: iou loss: ciou (4), iou_norm: 0.07, obj_norm: 1.00, cls_norm: 1.00, delta_norm: 1.00, scale_x_y: 1.00
nms_kind: greedynms (1), beta = 0.600000 
Total BFLOPS 0.725 
avg_outputs = 120982 
 Allocate additional workspace_size = 0.31 MB 
Loading weights from model/yolo-fastest-1_final.weights...
 seen 64, trained: 16000 K-images (250 Kilo-batches_64) 
…
